wox.core/resource/dictation/silero_vad.onnx (onnx, 643854 bytes, 39 tensors)

feature_extractor.forward_basis_buffer f4 [258, 1, 256]
0	0x00000000	0.0
1	0x391de7df	0.00015059065
2	0x3a1de1c8	0.0006022719
3	0x3ab19298	0.0013547717
4	0x3b1dc971	0.0024076367
5	0x3b766e3c	0.0037602326
6	0x3bb15502	0.005411745
7	0x3bf1360b	0.0073611788
8	0x3c1d6830	0.00960736
9	0x3c470c54	0.012148935
10	0x3c758104	0.014984373
11	0x3c945f8c	0.018111967
12	0x3cb05f55	0.021529833
13	0x3ccebb8a	0.02523591
14	0x3cef6f7e	0.029227968
15	0x3d093b12	0.0335036
16	0x3d1be50c	0.038060233
17	0x3d2fb2cc	0.042895123
18	0x3d44a143	0.048005354
19	0x3d5aad38	0.05338785
20	0x3d71d344	0.05903937
21	0x3d8507ea	0.0649565
22	0x3d91af97	0.07113569
23	0x3d9edeb5	0.07757322
24	0x3dac933b	0.084265195
25	0x3dbacb0c	0.09120759
26	0x3dc983f7	0.098396234
27	0x3dd8bbb7	0.10582679
28	0x3de86ff3	0.113494776
29	0x3df89e3f	0.12139558
30	0x3e04a20e	0.12952444
31	0x3e0d2f7d	0.13787647
32	0x3e15f61a	0.14644662
33	0x3e1ef48b	0.15522973
34	0x3e28296d	0.16422053
35	0x3e319354	0.17341357
36	0x3e3b30ce	0.18280336
37	0x3e45005d	0.1923842
38	0x3e4f0080	0.20215034
39	0x3e592fab	0.2120959
40	0x3e638c4c	0.22221488
41	0x3e6e14cb	0.2325012
42	0x3e78c786	0.24294862
43	0x3e81d16d	0.25355092
44	0x3e87528b	0.26430163
45	0x3e8ce646	0.27519435
46	0x3e928bc0	0.28622246
47	0x3e98421b	0.29737934
48	0x3e9e0875	0.30865827
49	0x3ea3ddeb	0.32005247
50	0x3ea9c196	0.33155507
51	0x3eafb28e	0.34315914
52	0x3eb5afe7	0.35485765
53	0x3ebbb8b6	0.3666436
54	0x3ec1cc0d	0.3785099
55	0x3ec7e8fb	0.39044937
56	0x3ece0e90	0.40245485
57	0x3ed43bd7	0.41451904
58	0x3eda6fdf	0.42663476
59	0x3ee0a9b2	0.43879467
60	0x3ee6e859	0.45099142
61	0x3eed2adf	0.4632177
62	0x3ef3704d	0.47546616
63	0x3ef9b7ab	0.4877294
64	0x3f000000	0.5
65	0x3f03242b	0.5122706
66	0x3f0647d9	0.5245338
67	0x3f096a90	0.53678226
68	0x3f0c8bd3	0.54900855
69	0x3f0fab27	0.5612053
70	0x3f12c810	0.5733652
71	0x3f15e214	0.5854809
72	0x3f18f8b8	0.59754515
73	0x3f1c0b82	0.6095506
74	0x3f1f19f9	0.62149006
75	0x3f2223a5	0.6333564
76	0x3f25280c	0.6451423
77	0x3f2826b9	0.65684086
78	0x3f2b1f35	0.66844493
79	0x3f2e110a	0.6799475
80	0x3f30fbc5	0.6913417
81	0x3f33def3	0.7026207
82	0x3f36ba20	0.71377754
83	0x3f398cdd	0.72480565
84	0x3f3c56ba	0.73569834
85	0x3f3f174a	0.7464491
86	0x3f41ce1e	0.75705135
87	0x3f447acd	0.7674988
88	0x3f471ced	0.7777851
89	0x3f49b415	0.7879041
90	0x3f4c3fe0	0.79784966
91	0x3f4ebfe9	0.8076158
92	0x3f5133cd	0.81719667
93	0x3f539b2b	0.8265864
94	0x3f55f5a5	0.8357795
95	0x3f5842dd	0.84477025
96	0x3f5a827a	0.8535534
97	0x3f5cb421	0.86212355
98	0x3f5ed77d	0.8704756
99	0x3f60ec38	0.8786044
100	0x3f62f202	0.88650525
101	0x3f64e889	0.8941732
102	0x3f66cf81	0.90160376
103	0x3f68a69f	0.90879244
104	0x3f6a6d99	0.9157348
105	0x3f6c2429	0.92242676
106	0x3f6dca0d	0.9288643
107	0x3f6f5f03	0.9350435
108	0x3f70e2cc	0.94096065
109	0x3f72552d	0.9466122
110	0x3f73b5ec	0.95199466
111	0x3f7504d3	0.95710486
112	0x3f7641af	0.96193975
113	0x3f776c4f	0.9664964
114	0x3f788484	0.970772
115	0x3f798a24	0.9747641
116	0x3f7a7d05	0.97847015
117	0x3f7b5d04	0.98188806
118	0x3f7c29fc	0.98501563
119	0x3f7ce3cf	0.9878511
120	0x3f7d8a5f	0.9903926
121	0x3f7e1d94	0.9926388
122	0x3f7e9d56	0.99458826
123	0x3f7f0992	0.9962398
124	0x3f7f6237	0.9975924
125	0x3f7fa737	0.99864525
126	0x3f7fd888	0.99939775
127	0x3f7ff622	0.99984944
128	0x3f800000	1.0
129	0x3f7ff622	0.99984944
130	0x3f7fd888	0.99939775
131	0x3f7fa737	0.99864525
132	0x3f7f6237	0.9975924
133	0x3f7f0992	0.9962398
134	0x3f7e9d56	0.99458826
135	0x3f7e1d94	0.9926388
136	0x3f7d8a5f	0.9903926
137	0x3f7ce3cf	0.9878511
138	0x3f7c29fc	0.98501563
139	0x3f7b5d04	0.98188806
140	0x3f7a7d05	0.97847015
141	0x3f798a24	0.9747641
142	0x3f788484	0.970772
143	0x3f776c4f	0.9664964
144	0x3f7641af	0.96193975
145	0x3f7504d3	0.95710486
146	0x3f73b5ec	0.95199466
147	0x3f72552d	0.9466122
148	0x3f70e2cc	0.94096065
149	0x3f6f5f03	0.9350435
150	0x3f6dca0d	0.9288643
151	0x3f6c2429	0.92242676
152	0x3f6a6d99	0.9157348
153	0x3f68a69f	0.90879244
154	0x3f66cf81	0.90160376
155	0x3f64e889	0.8941732
156	0x3f62f202	0.88650525
157	0x3f60ec38	0.8786044
158	0x3f5ed77d	0.8704756
159	0x3f5cb421	0.86212355
160	0x3f5a827a	0.8535534
161	0x3f5842dd	0.84477025
162	0x3f55f5a5	0.8357795
163	0x3f539b2b	0.8265864
164	0x3f5133cd	0.81719667
165	0x3f4ebfe9	0.8076158
166	0x3f4c3fe0	0.79784966
167	0x3f49b415	0.7879041
168	0x3f471ced	0.7777851
169	0x3f447acd	0.7674988
170	0x3f41ce1e	0.75705135
171	0x3f3f174a	0.7464491
172	0x3f3c56ba	0.73569834
173	0x3f398cdd	0.72480565
174	0x3f36ba20	0.71377754
175	0x3f33def3	0.7026207
176	0x3f30fbc5	0.6913417
177	0x3f2e110a	0.6799475
178	0x3f2b1f35	0.66844493
179	0x3f2826b9	0.65684086
180	0x3f25280c	0.6451423
181	0x3f2223a5	0.6333564
182	0x3f1f19f9	0.62149006
183	0x3f1c0b82	0.6095506
184	0x3f18f8b8	0.59754515
185	0x3f15e214	0.5854809
186	0x3f12c810	0.5733652
187	0x3f0fab27	0.5612053
188	0x3f0c8bd3	0.54900855
189	0x3f096a90	0.53678226
190	0x3f0647d9	0.5245338
191	0x3f03242b	0.5122706
192	0x3f000000	0.5
193	0x3ef9b7ab	0.4877294
194	0x3ef3704d	0.47546616
195	0x3eed2adf	0.4632177
196	0x3ee6e859	0.45099142
197	0x3ee0a9b2	0.43879467
198	0x3eda6fdf	0.42663476
199	0x3ed43bd7	0.41451904
200	0x3ece0e90	0.40245485
201	0x3ec7e8fb	0.39044937
202	0x3ec1cc0d	0.3785099
203	0x3ebbb8b6	0.3666436
204	0x3eb5afe7	0.35485765
205	0x3eafb28e	0.34315914
206	0x3ea9c196	0.33155507
207	0x3ea3ddeb	0.32005247
208	0x3e9e0875	0.30865827
209	0x3e98421b	0.29737934
210	0x3e928bc0	0.28622246
211	0x3e8ce646	0.27519435
212	0x3e87528b	0.26430163
213	0x3e81d16d	0.25355092
214	0x3e78c786	0.24294862
215	0x3e6e14cb	0.2325012
216	0x3e638c4c	0.22221488
217	0x3e592fab	0.2120959
218	0x3e4f0080	0.20215034
219	0x3e45005d	0.1923842
220	0x3e3b30ce	0.18280336
221	0x3e319354	0.17341357
222	0x3e28296d	0.16422053
223	0x3e1ef48b	0.15522973
224	0x3e15f61a	0.14644662
225	0x3e0d2f7d	0.13787647
226	0x3e04a20e	0.12952444
227	0x3df89e3f	0.12139558
228	0x3de86ff3	0.113494776
229	0x3dd8bbb7	0.10582679
230	0x3dc983f7	0.098396234
231	0x3dbacb0c	0.09120759
232	0x3dac933b	0.084265195
233	0x3d9edeb5	0.07757322
234	0x3d91af97	0.07113569
235	0x3d8507ea	0.0649565
236	0x3d71d344	0.05903937
237	0x3d5aad38	0.05338785
238	0x3d44a143	0.048005354
239	0x3d2fb2cc	0.042895123
240	0x3d1be50c	0.038060233
241	0x3d093b12	0.0335036
242	0x3cef6f7e	0.029227968
243	0x3ccebb8a	0.02523591
244	0x3cb05f55	0.021529833
245	0x3c945f8c	0.018111967
246	0x3c758104	0.014984373
247	0x3c470c54	0.012148935
248	0x3c1d6830	0.00960736
249	0x3bf1360b	0.0073611788
250	0x3bb15502	0.005411745
251	0x3b766e3c	0.0037602326
252	0x3b1dc971	0.0024076367
253	0x3ab19298	0.0013547717
254	0x3a1de1c8	0.0006022719
255	0x391de7df	0.00015059065

adaptive_normalization.filter_ f4 [1, 1, 7]
0	0x3d160c53	0.036632847
1	0x3de3e72b	0.11128076
2	0x3e5df27c	0.21674532
3	0x3e8a96da	0.27068216
4	0x3e5df27c	0.21674532
5	0x3de3e72b	0.11128076
6	0x3d160c53	0.036632847

first_layer.0.dw_conv.0.weight f4 [258, 1, 5]
0	0xbe8ec6b9	-0.27885988
1	0x3ea34b85	0.31893554
2	0x3e556d54	0.20842487
3	0x3eaf46a0	0.3423357
4	0x3f1216aa	0.5706583
5	0x3d6b6e8d	0.057478476
6	0xbf792040	-0.97314835
7	0xbe650cdb	-0.22368185
8	0x3f0af4e6	0.54279935
9	0x3eefe637	0.46855327
10	0xbf695b11	-0.9115458
11	0x3d971703	0.07377436
12	0x3f22ffe7	0.63671726
13	0x3e6273a6	0.22114429
14	0xbe2457d7	-0.16049133
15	0x3f716786	0.9429859
16	0x3f01b1bc	0.50661826
17	0xbfab12fb	-1.3365167
18	0xbf826eb5	-1.0190035
19	0x3eae513f	0.3404636
20	0xbd5cee70	-0.05393833
21	0xbe55dfeb	-0.20886199
22	0xbd474942	-0.04865385
23	0x3f837f22	1.0273173
24	0x3f4a4122	0.79005635
25	0xbe4aae14	-0.19792968
26	0xbe9dd819	-0.30828932
27	0x3e9eff2e	0.31054062
28	0x3f561768	0.83629465
29	0x3f86f9a0	1.054493
30	0x3ccac790	0.024753362
31	0x3f263cfc	0.64936805
32	0x3daa6e4a	0.08321817
33	0xbf840b1d	-1.0315892
34	0xbe583219	-0.2111286
35	0xbd816bb6	-0.06319372
36	0x3ece15b9	0.40250948
37	0xbe87d748	-0.26531434
38	0xbf08e3fd	-0.5347288
39	0xbee4526e	-0.4459414
40	0xbf3d940f	-0.74054044
41	0xbe298a60	-0.16556692
42	0x3e3c772e	0.18404838
43	0x3f110ac7	0.5665707
44	0x3ef1f23b	0.4725512
45	0xbec9645a	-0.39334375
46	0x3f0715f4	0.5276787
47	0x3ee162e7	0.4402077
48	0xbf74b842	-0.95593655
49	0xbe09f8b2	-0.13473776
50	0xbefc6ddb	-0.49302563
51	0x3f300814	0.68762326
52	0x3e658bb8	0.2241658
53	0xbf2eca28	-0.68277216
54	0xbbda4461	-0.0066609834
55	0x3f61a1e0	0.88137627
56	0x3cbe2280	0.02320981
57	0xbf66a9b4	-0.90102696
58	0xbf1a2160	-0.60207176
59	0x3dd0b472	0.10190667
60	0xbdfa6a64	-0.12227324
61	0xbe0fa440	-0.140275
62	0xbeb1a834	-0.3469864
63	0xbd985405	-0.074379005
64	0xbd9eb594	-0.07749477
65	0xbe360c07	-0.17778026
66	0x3d9d61b1	0.07684649
67	0xbe0c8e62	-0.1372619
68	0x3f2f1870	0.68396664
69	0x3e6ddd4a	0.23228946
70	0xbe9958d1	-0.29950574
71	0x3e0dba85	0.13840683
72	0xbc5b6ff3	-0.01339339
73	0x3ee3e4c6	0.44510478
74	0x3d33db26	0.043910168
75	0x3c8f2178	0.017472014
76	0xbeaf527c	-0.34242618
77	0x3c3923aa	0.011300007
78	0x3f1c508b	0.610604
79	0x3f966b70	1.1751537
80	0xbe89fc3f	-0.2695026
81	0xbe285d75	-0.16441901
82	0x3e9358ac	0.2877859
83	0x3f117077	0.5681223
84	0x3f727c53	0.94720954
85	0x3edb890d	0.42878
86	0x3ebb2611	0.3655248
87	0xbf67613f	-0.9038276
88	0xbe956028	-0.29174924
89	0x3f149534	0.58040166
90	0x3e46c856	0.1941236
91	0xbecf350b	-0.40470156
92	0xbc3c9a37	-0.011511377
93	0x3f0e77fb	0.55651826
94	0x3dafb9b7	0.08580344
95	0xbf42773c	-0.7596319
96	0xbf65e206	-0.8979801
97	0x3e97bd75	0.29636732
98	0x3ea5302d	0.32263318
99	0x3f8460a4	1.0341992
100	0xbf6c1ed7	-0.9223456
101	0x3ea38b7f	0.31942365
102	0x3f1de10d	0.61671525
103	0xbe8f1d05	-0.27951828
104	0xbe6da489	-0.23207296
105	0x3f3c5f2d	0.73582727
106	0x3ddb9139	0.107210584
107	0xbdbe329d	-0.092869975
108	0x3ef8326e	0.48475975
109	0x3f12874a	0.57237685
110	0xbec7f77f	-0.39056012
111	0xbde9cc70	-0.114159465
112	0xbeb8a4b1	-0.3606315
113	0xbd5d5476	-0.054035626
114	0x3bc98fdc	0.0061511826
115	0xbf9222d0	-1.1416874
116	0xbebbbb3e	-0.36666292
117	0x3f04fea4	0.5195105
118	0x3f619170	0.88112545
119	0x3f7f3ea2	0.99704945
120	0x3ea84a84	0.3286935
121	0x3e80f11d	0.25183955
122	0xbe9e2695	-0.3088881
123	0xbf1bd13c	-0.6086614
124	0x3e2368fb	0.15958016
125	0x3e36fdcf	0.17870258
126	0x3eea3b49	0.45748356
127	0x3e2be17a	0.16785231
128	0x3d90119d	0.070346095
129	0x3e8be1a5	0.2732059
130	0xbe3078b2	-0.17233542
131	0xbe8a1962	-0.2697249
132	0x3ca0e7c2	0.01964176
133	0x3f0da68d	0.5533226
134	0x3f1655a2	0.58724415
135	0xbef7288b	-0.4827312
136	0x3d91c2a1	0.07117201
137	0x3ee10d6b	0.4395555
138	0x3ef4c763	0.4780837
139	0x3ed6f45f	0.41983315
140	0xbf6ee1d3	-0.9331333
141	0xbf8808b8	-1.0627661
142	0xbf954337	-1.1661137
143	0xbfddf9ed	-1.7341896
144	0xc01402b0	-2.312664
145	0x3e75d3f4	0.24006635
146	0x3dd84a1e	0.10561012
147	0x3de9c6f2	0.11414899
148	0x3f01e236	0.50735795
149	0x3ced90c2	0.02899969
150	0xbf189990	-0.5960932
151	0xbf38f66b	-0.72251004
152	0x3e8fa0fb	0.28052506
153	0x3f124c61	0.57147795
154	0xbe085304	-0.13312918
155	0xbf10fae5	-0.56632835
156	0xbd243117	-0.04008588
157	0x3e06cb12	0.13163403
158	0x3e783f0c	0.242428
159	0x3c09eb8d	0.008417976
160	0xbe079bb4	-0.1324299
161	0xbf5b0ea7	-0.8556923
162	0xbefd6298	-0.49489284
163	0x3f0b484f	0.5440721
164	0x3f0ffdf9	0.56246907
165	0x3e4ae579	0.198141
166	0xbce1a9c2	-0.027546767
167	0x3f51cde4	0.8195479
168	0x3d9c49d0	0.07631266
169	0x3ef26e8c	0.47349966
170	0xbee68a2b	-0.4502729
171	0xbf30dbba	-0.69085276
172	0x3ee0469f	0.4380388
173	0x3ed2694b	0.41095957
174	0x3ebef568	0.37296605
175	0x3ed0d0c9	0.4078429
176	0x3e651ae7	0.22373544
177	0x3e826421	0.25467017
178	0x3ed6b2e2	0.41933352
179	0x3ec67e05	0.3876802
180	0xbe8ad07d	-0.2711219
181	0xbefcee0c	-0.49400365
182	0xbfd68809	-1.6760265
183	0xbffabaa4	-1.9588208
184	0xbfce5569	-1.6119815
185	0x3c32150b	0.010869275
186	0xbe94a117	-0.29029152
187	0x3e30e1cb	0.17273633
188	0xbdb255b3	-0.08707752
189	0xbee5013d	-0.44727507
190	0x3def00bb	0.11670061
191	0xbd914450	-0.07093108
192	0x3dbd5959	0.09245557
193	0x3e66dabc	0.22544378
194	0xbf49bcfb	-0.78803986
195	0xbf3a938e	-0.728814
196	0xbf0154ae	-0.50519836
197	0x3f4346a3	0.7627966
198	0x3eaa3a03	0.33247384
199	0xbdac1175	-0.08401767
200	0x3ea2ddfc	0.31809986
201	0x3ed81b34	0.42208254
202	0x3f1b0ee3	0.6056959
203	0x3ebd2e30	0.369493
204	0xbd1260cc	-0.035736844
205	0x3f018a8a	0.5060202
206	0x3eae0c31	0.33993676
207	0x3e378c7a	0.17924681
208	0x3ddb09e8	0.10695249
209	0x3f46f4f1	0.777175
210	0xbfae44b1	-1.3614713
211	0xbf1d29dd	-0.61392003
212	0x3f27820d	0.65432817
213	0x3f2ae0ef	0.6674947
214	0x3f1d79ab	0.61513776
215	0xbeee3b24	-0.46529496
216	0xbed5cd10	-0.41758013
217	0x3e559b35	0.20859988
218	0x3ed08e3e	0.40733522
219	0xbe0d5e55	-0.13805516
220	0xbe813e89	-0.25243023
221	0xbd51a94b	-0.05118684
222	0x3eedb11f	0.46424195
223	0x3f7be353	0.98393744
224	0x3fc7fac2	1.56234
225	0x3ea570a0	0.3231249
226	0xbe8cbebb	-0.27489266
227	0xbe866c1f	-0.26254365
228	0x3ec0c062	0.37646776
229	0x3f0a757c	0.54085517
230	0xbf8abdab	-1.0839132
231	0xbf585dd0	-0.84518147
232	0xbf73f881	-0.9530106
233	0xbf7fef6d	-0.9997471
234	0xbf375d57	-0.716268
235	0xbf00073a	-0.50011027
236	0x3f01c272	0.50687325
237	0x3ed18932	0.40924984
238	0xbebfc8df	-0.3745794
239	0xbe1aaa07	-0.15103923
240	0xbfa363c1	-1.2764817
241	0xbf9ccabc	-1.224937
242	0xbfd043b5	-1.6270663
243	0xbfc57096	-1.5424984
244	0xbfc641cb	-1.5488828
245	0xbeeb1c63	-0.45920095
246	0xbe18fa2d	-0.14939184
247	0x3ecfa369	0.4055436
248	0x3e3badff	0.18328093
249	0x3eb626b6	0.3557641
250	0xbfb63c21	-1.42371
251	0xbfc7e23c	-1.5615916
252	0xc0104b78	-2.2546062
253	0xc0244a74	-2.5670443
254	0xc071d968	-3.7788944
255	0xbebc86a3	-0.3682147

first_layer.0.dw_conv.0.bias f4 [258]
0	0xbe39a772	-0.18130282
1	0x3c55675d	0.013025132
2	0xbd33ac7f	-0.043865677
3	0x3f0ef7d0	0.5584688
4	0x3e7b6a6f	0.2455232
5	0xbc0a75db	-0.0084509505
6	0x3f18be66	0.59665525
7	0x3f953a02	1.1658328
8	0x3bdafd23	0.0066830083
9	0x3edc180a	0.4298709
10	0x3bc48dc7	0.0059983465
11	0x3dc5a0f0	0.09649837
12	0xbe60f693	-0.2196906
13	0x3c9cb5ec	0.019129716
14	0x3beeb93b	0.007285265
15	0x3c17b9b5	0.009260585
16	0x3d7c5b10	0.06161028
17	0x386728d6	5.5112723e-05
18	0xbe4505d5	-0.19240506
19	0xbd763fbc	-0.060119376
20	0xbbe43a67	-0.00696497
21	0x3c14d1fc	0.009083267
22	0xbdb48bd6	-0.08815734
23	0x3bd795a5	0.0065791183
24	0x3ef9d75b	0.48797116
25	0xbec440a1	-0.38330558
26	0x3c49699c	0.012293246
27	0x3bf2b722	0.007407085
28	0x3ee8811f	0.45411012
29	0xbf47b5ac	-0.78011584
30	0x3a826cae	0.0009950602
31	0x3ea385d2	0.31938034
32	0x3c0ba1fb	0.008522506
33	0xbf22de66	-0.63620603
34	0x3e954be7	0.2915947
35	0xbf28151f	-0.6565723
36	0x3ea0a543	0.31376085
37	0x3e294a73	0.16532306
38	0x3e56b522	0.20967534
39	0x3b033b95	0.0020024527
40	0xbf27aaf9	-0.6549526
41	0xbf032720	-0.51231575
42	0x3bed61ba	0.007244316
43	0xbb8befb8	-0.00427052
44	0x3c133858	0.008985601
45	0xbe8acb75	-0.2710835
46	0x3ee1fe18	0.4413917
47	0x3c94f591	0.018183501
48	0x3eddeeee	0.4334635
49	0x3eb56e33	0.35435638
50	0x3e80f714	0.25188506
51	0x3ec82814	0.39093077
52	0x3e8c1012	0.2735601
53	0x3e3575de	0.17720744
54	0x3cf60911	0.03003362
55	0xbf489241	-0.78348166
56	0x3e010804	0.12600714
57	0x3dc7e3a2	0.097602144
58	0xbf3cf833	-0.7381622
59	0xbf0e9d71	-0.55708987
60	0xbf05cef4	-0.5226891
61	0xbc1a283a	-0.009409005
62	0x3e4abbc0	0.19798183
63	0x3edd3db0	0.43211126
64	0xbbbc9d0a	-0.005756025
65	0x3cb3bf5e	0.021941837
66	0xbe461cad	-0.19346876
67	0xbeb86c58	-0.3602016
68	0xbf313524	-0.6922171
69	0x3eb602e1	0.3554907
70	0x3e6cb9c1	0.23117734
71	0x3e3bf90f	0.18356727
72	0xbec43eed	-0.3832926
73	0x3e55eec1	0.20891859
74	0xbf33e698	-0.70273733
75	0xbf06a172	-0.52590096
76	0xbecb25db	-0.3967732
77	0xbbf54f4b	-0.007486259
78	0xbeca8d57	-0.3956096
79	0x3e8025a7	0.25028726
80	0x3e8f7425	0.280183
81	0xbefed502	-0.49771887
82	0x3e7c6a5c	0.24649948
83	0x3d90f72d	0.07078395
84	0xbf0c00f0	-0.5468893
85	0x3c3ea744	0.011636559
86	0x3c876a4e	0.016530182
87	0xbebf8a57	-0.37410232
88	0x3e5b9059	0.21441783
89	0x3cb6d644	0.022318967
90	0x3ea1e310	0.31618547
91	0xbeabd1aa	-0.33558398
92	0x3ef36a4a	0.4754203
93	0xbc1543c3	-0.009110394
94	0x3e7ff30e	0.24995062
95	0x3e49b5d1	0.19698264
96	0x3d803df9	0.0626182
97	0x3e559199	0.20856322
98	0xbc39f732	-0.01135044
99	0xbe483f11	-0.19555308
100	0xbece9050	-0.40344477
101	0xbcdd5447	-0.027017726
102	0xbed8d1b8	-0.42347503
103	0x3e49d00a	0.19708267
104	0x3c16043a	0.009156281
105	0xbebaf156	-0.3651225
106	0x3c194f5e	0.0093573015
107	0x3e9efad5	0.31050745
108	0xbe76707a	-0.24066344
109	0x3eb1ae89	0.34703472
110	0x3ed9d940	0.4254856
111	0xbe662dc3	-0.22478394
112	0xbc6f5d4f	-0.014609649
113	0x3df53605	0.11973194
114	0xbe280b81	-0.16410638
115	0xbda0e58f	-0.07856285
116	0xbecc1f90	-0.3986783
117	0xbe6ef161	-0.23334266
118	0xbc350afa	-0.01104998
119	0xbe07a1bd	-0.13245292
120	0xbe7241ee	-0.23657963
121	0x3ebeca4d	0.37263718
122	0xbf04bdb7	-0.5185198
123	0xbef41bea	-0.47677547
124	0x3e89b970	0.2689929
125	0x3e1296a8	0.14315283
126	0x3cb91d27	0.022596909
127	0x3e00a8cb	0.1256439
128	0xbe9a331d	-0.3011712
129	0xbe07cc85	-0.13261612
130	0xbb8f4916	-0.004372726
131	0x3f9d316e	1.228071
132	0x3e99afe2	0.30017
133	0x3ea86aba	0.32893926
134	0x3f16ee0a	0.5895697
135	0xbb817408	-0.0039505996
136	0xbfb4685c	-1.4094348
137	0xbb6c8930	-0.0036092512
138	0xbf8eeb9e	-1.1165655
139	0x3c8ce552	0.017199192
140	0xbba8501b	-0.0051365024
141	0xbf126d46	-0.5719799
142	0x3e16ee2c	0.14739293
143	0x3ed94c5c	0.4244107
144	0xbf9cb8ad	-1.2243859
145	0xbf5fe4ea	-0.8745867
146	0x3e92483d	0.28570738
147	0x3bfa412f	0.007637165
148	0x3e8cf89d	0.27533427
149	0xbc09d9dc	-0.008413758
150	0xbfa3333e	-1.2750013
151	0xbad22949	-0.0016034032
152	0xbfa750de	-1.3071554
153	0x3ae56ead	0.0017504297
154	0x3d0cb966	0.034356497
155	0xbaefd447	-0.0018297517
156	0x3ac0c47f	0.0014706998
157	0x3c842c11	0.016134294
158	0x3ab693da	0.0013929561
159	0xbf872631	-1.055853
160	0x3e8d9ff5	0.276611
161	0x3e20b102	0.15692523
162	0x3e94b4dd	0.29044238
163	0x3e960c37	0.29306194
164	0xba9d62b5	-0.0012007566
165	0x3e7b4d1d	0.24541135
166	0xbea30416	-0.31839055
167	0x3f2bef5a	0.67162097
168	0xbe3a6cd3	-0.18205576
169	0x3ebad3c0	0.36489677
170	0x3d1297c1	0.035789255
171	0xbe87af21	-0.265008
172	0x39cf2d15	0.00039515705
173	0x3f0097c0	0.5023155
174	0x3ea80ada	0.3282078
175	0x3b539a74	0.0032288106
176	0x3e4b5476	0.19856438
177	0xbe8f42f8	-0.2798078
178	0xbdf799fe	-0.120899186
179	0xbbdd1644	-0.006747039
180	0x3c265a99	0.010153436
181	0xbc93c73a	-0.018039335
182	0xbda9af5e	-0.08285402
183	0xbe137b89	-0.14402594
184	0xbb8e0127	-0.0043336335
185	0x3e1e8ed9	0.1548418
186	0x3e22dd7e	0.15904805
187	0xbc176f48	-0.00924284
188	0x3e502497	0.20326458
189	0x3ce2da20	0.0276919
190	0xbe0eb37f	-0.1393566
191	0xbe606225	-0.21912439
192	0x3e70f758	0.23531854
193	0x3bd15a4e	0.006388939
194	0xbe4c416e	-0.19946834
195	0x3d163362	0.036670096
196	0xbe88b97f	-0.26704022
197	0xbe8cacd6	-0.27475613
198	0x3ef5b68e	0.4799084
199	0x3da06e99	0.07833595
200	0xbe871dc8	-0.2638991
201	0xbd0f75b4	-0.03502436
202	0xbecd00d9	-0.4003971
203	0x3c18d2eb	0.0093276305
204	0xbf4eef2c	-0.808337
205	0xbed8876f	-0.42290828
206	0xbf4b4d0c	-0.7941444
207	0x3bc58770	0.0060281083
208	0xbb59ac39	-0.0033214225
209	0xbc8c98b0	-0.01716265
210	0x3e7e9d90	0.24864793
211	0x3b3ef332	0.0029136655
212	0xbcbcf14a	-0.023064274
213	0x3ee16b62	0.4402724
214	0xbe9007e1	-0.2813101
215	0xbbbd79ec	-0.0057823565
216	0xbe423b8d	-0.1896803
217	0x3e0d525d	0.1380095
218	0xbf51744d	-0.81818086
219	0x3df6621d	0.120304324
220	0xbab89ad8	-0.0014084233
221	0x3e6b794a	0.22995487
222	0x3e25fdd4	0.16210109
223	0xbf8e01db	-1.1094316
224	0xba2ee6c3	-0.00066719594
225	0x3dc46265	0.0958908
226	0x3effb018	0.49939036
227	0xbb30b757	-0.0026964748
228	0xbc0a4b39	-0.008440786
229	0x3f0b63ed	0.5444935
230	0x3eb767a1	0.3582125
231	0xbb618c74	-0.0034415992
232	0xbc5353d7	-0.012898407
233	0xbb972496	-0.0046125157
234	0xbf3aedbb	-0.73019
235	0x3efb4e94	0.49083388
236	0xbf57f74c	-0.8436172
237	0x3e11e639	0.14247979
238	0xbbc3350c	-0.0059572514
239	0x3f731787	0.94957775
240	0xbf79af99	-0.97533566
241	0xbe3f5c81	-0.18687631
242	0x396b1b13	0.00022421432
243	0xbb3b28ee	-0.0028558332
244	0x3f2c468b	0.6729514
245	0xbbc12703	-0.005894543
246	0x3b48d936	0.0030647046
247	0xbef3d19c	-0.47620857
248	0x3f1ad798	0.6048522
249	0xbf5ec6e8	-0.87022257
250	0x3f3fb658	0.7488761
251	0xbf7e4ee1	-0.9933911
252	0xbf3d49ad	-0.73940545
253	0xbf4c25af	-0.79745
254	0x3f8f686b	1.1203741
255	0x3ede4f4f	0.43419883

first_layer.0.pw_conv.0.weight f4 [16, 258, 1]
0	0x3d205c63	0.039150607
1	0x3d9b0d99	0.07570953
2	0xbd08763c	-0.033315882
3	0x3d416fc4	0.04722573
4	0xbd036f5b	-0.03208862
5	0x3bd7ce80	0.006585896
6	0xbe6869a3	-0.22696547
7	0xbeb51aa8	-0.353719
8	0xbe2b9294	-0.16755134
9	0xbe872bae	-0.26400512
10	0xbdd3947f	-0.10331058
11	0xbc66308a	-0.014049659
12	0x3ca7e9a6	0.020497154
13	0x3cd7d210	0.026345283
14	0xbd99bbd0	-0.075065255
15	0xbd634ba4	-0.05549206
16	0xbdfa262b	-0.12214311
17	0x3d183175	0.03715654
18	0x3d3e9898	0.046532243
19	0x3cf69d6d	0.030104363
20	0xbe289b87	-0.16465579
21	0x3c091f48	0.008369274
22	0xbd4c2eac	-0.049849197
23	0xbd3013a6	-0.04298749
24	0xbeb7a823	-0.35870466
25	0x3bdf7355	0.0068191686
26	0xbdaa8894	-0.083268315
27	0xbcef6260	-0.029221714
28	0x3c4907ff	0.012269973
29	0xbdcf01a5	-0.101077355
30	0xbb4216c4	-0.002961562
31	0xbe9bc65e	-0.3042478
32	0x3e591667	0.21199952
33	0x3ccd4cc7	0.025061024
34	0xbeb22438	-0.34793258
35	0x3d682dd8	0.056684345
36	0x3e8a51cb	0.27015528
37	0xbe8c3819	-0.2738655
38	0xbe89a7cb	-0.26885828
39	0xbed870a8	-0.4227345
40	0x3e3695b0	0.17830539
41	0x3e8792dd	0.26479235
42	0xbe699dd4	-0.22814113
43	0xbe668ff0	-0.22515845
44	0xbb8cee59	-0.004300874
45	0xbea8aea0	-0.32945728
46	0x3d846dae	0.06466232
47	0xbe22ffc3	-0.15917878
48	0x3e369949	0.17831911
49	0xbec5851e	-0.38578123
50	0x3e895b67	0.26827547
51	0xbd66aa5d	-0.056314815
52	0x3d9d455c	0.07679245
53	0xbe770a86	-0.24125108
54	0xbeb46f1b	-0.35241017
55	0x3c596e37	0.013270906
56	0x3eef2882	0.46710593
57	0x3f188d74	0.5959084
58	0x3c7c274d	0.015390229
59	0xbeefcde4	-0.4683677
60	0x3dc54013	0.09631362
61	0x3df020e6	0.11725025
62	0x3ecb2ec5	0.3968412
63	0xbd42c403	-0.047550213
64	0x3bf231fe	0.0073912134
65	0xbdcfa803	-0.101394676
66	0x3dca1f91	0.09869302
67	0xbcd1043c	-0.025514714
68	0x3e1b074d	0.15139504
69	0xbe9aadf7	-0.3021085
70	0x3eb37eac	0.3505758
71	0x3e89c43f	0.26907536
72	0x3df6bfe5	0.1204832
73	0xbeba617b	-0.36402497
74	0xbd5f18e8	-0.05446711
75	0xbc8f8c86	-0.017523061
76	0x3df1eb4f	0.1181246
77	0x3e66c58c	0.22536296
78	0xbc7eee89	-0.015559801
79	0xbeb3f101	-0.3514481
80	0xbe839818	-0.25701976
81	0x3e0b727f	0.13617896
82	0xbe5f766c	-0.21822518
83	0xbe9b5256	-0.30336255
84	0x3c69809a	0.014251852
85	0xbd483401	-0.04887772
86	0xbc8ba191	-0.017044814
87	0x3e35efff	0.17767332
88	0xbeb1cf7e	-0.34728616
89	0x3d83a65a	0.064282134
90	0x3d134cfc	0.03596209
91	0x3debcea1	0.11514021
92	0xbed9d890	-0.42548037
93	0x3bb90acb	0.0056470386
94	0xbec49f40	-0.38402748
95	0x3e619f31	0.22033383
96	0xbe7fe4a4	-0.24989563
97	0x3e0d5448	0.13801682
98	0x3e7d1003	0.24713139
99	0x3dd403de	0.103523
100	0x3cf57418	0.029962584
101	0x3da7ca7f	0.0819292
102	0x3d9674ab	0.073464714
103	0xbeb4f716	-0.35344762
104	0x3d90c311	0.07068456
105	0x3e63716c	0.22211236
106	0x3c22761f	0.009915858
107	0xbeb6e661	-0.3572264
108	0xbd7098d9	-0.058739517
109	0xbec22f9c	-0.37926948
110	0xbed01a6c	-0.40645158
111	0x3e57f118	0.21088064
112	0x3e148a76	0.14505944
113	0xbe770c5d	-0.2412581
114	0xbdf3d4b0	-0.11905801
115	0xbe5bd019	-0.21466102
116	0x3e7f7bcf	0.24949573
117	0xbd9667a1	-0.073439844
118	0x3e2ebb1c	0.17063564
119	0x3d93f7c2	0.072249904
120	0x3c5a7e0f	0.013335719
121	0xbecdb279	-0.40175226
122	0x3ebc50fb	0.36780533
123	0x3e96fe62	0.29490954
124	0x3d248e13	0.040174555
125	0xbe80b92e	-0.2514128
126	0x3e1bdc35	0.15220721
127	0x3d90393d	0.07042167
128	0x3e1e2956	0.15445456
129	0xbe2f8794	-0.17141563
130	0xbdfe8b42	-0.12428905
131	0xbe17bda9	-0.14818443
132	0xbd5d757b	-0.054067116
133	0x3d533d8f	0.05157238
134	0xbe74ed03	-0.23918538
135	0xbeb1d3ab	-0.34731802
136	0xbd26ef1b	-0.040755372
137	0xbe2d216a	-0.16907278
138	0x3d8bd1cf	0.06827127
139	0x3dcc889d	0.099869944
140	0xbe1ada9e	-0.15122458
141	0x3e54420b	0.20728318
142	0xbe684b7d	-0.22685046
143	0xbeac041b	-0.33596882
144	0x3e82a91f	0.25519654
145	0xbad4be08	-0.001623095
146	0xbeba73a0	-0.3641634
147	0xbe774620	-0.24147844
148	0xbdff162a	-0.12455399
149	0xbe93ce78	-0.2886846
150	0x3e82709b	0.25476536
151	0xbdee1969	-0.1162594
152	0x3e78807b	0.24267761
153	0xbda59e33	-0.08086815
154	0x3e66222b	0.22473972
155	0x3d237ec1	0.039915804
156	0xbd99ac81	-0.07503606
157	0xbe20e990	-0.15714097
158	0x3d94ef8b	0.07272252
159	0x3dd1335e	0.10214876
160	0xbe5c40f5	-0.21509154
161	0xbdb898a2	-0.090134874
162	0xbed82cf1	-0.42221788
163	0x3d3bc2c4	0.04584004
164	0xbe1593bf	-0.14607142
165	0xbdee207e	-0.11627291
166	0x3d25a694	0.040442064
167	0xbea7a492	-0.32742745
168	0x3b90db2f	0.00442066
169	0xbc8a67cc	-0.016895197
170	0x3d18824a	0.03723363
171	0xbceaf8b4	-0.028683044
172	0xbe0841bf	-0.1330633
173	0xbe815782	-0.25262076
174	0xbd9a7392	-0.075415745
175	0xbe1282fe	-0.14307782
176	0xbdebe91c	-0.115190715
177	0x3da76de5	0.081752576
178	0xbcbef6cf	-0.023311047
179	0xbe363f63	-0.17797618
180	0xbe2b644d	-0.1673748
181	0xbe58db9f	-0.21177529
182	0xbdd653b1	-0.104651816
183	0xbdc4f663	-0.09617307
184	0xbdacbdd6	-0.08434646
185	0xbd24b1fe	-0.04020881
186	0xbb9fd216	-0.004877339
187	0xbe0204ad	-0.12697096
188	0xbdca5da6	-0.09881143
189	0xbe3b5e4c	-0.1829769
190	0xbdead18b	-0.114657484
191	0xbd992e88	-0.07479578
192	0xbe895fd5	-0.26830927
193	0xbdb762e4	-0.08954409
194	0x3db1739c	0.08664629
195	0x3e45e6ae	0.19326279
196	0x3f135d59	0.5756431
197	0x3d80198b	0.06254872
198	0xbe9f62bb	-0.31130013
199	0xbe3187ca	-0.17336956
200	0xbe85c594	-0.26127303
201	0xbd333cbc	-0.043759093
202	0x3e2e2a09	0.17008223
203	0xbe268e3f	-0.162652
204	0xbe4fdbb4	-0.20298654
205	0xbce4b98f	-0.027920512
206	0xbe5fca92	-0.21854618
207	0xbccccde6	-0.025000524
208	0xbd0850f3	-0.033280324
209	0x3cb4a60e	0.022051837
210	0xbb4102b1	-0.0029451067
211	0xbdd40ebd	-0.103543736
212	0x3d9d5c0e	0.07683574
213	0xbe953d57	-0.2914836
214	0x3c782283	0.015144947
215	0xbe1e4a5e	-0.15458056
216	0xbe6f32ff	-0.23359297
217	0xbe5d2606	-0.21596536
218	0x3ede0320	0.4336176
219	0xbd461ebd	-0.048369158
220	0xbe6ddc62	-0.232286
221	0x3dcc817e	0.09985636
222	0x3d631845	0.055443067
223	0x3ee0663d	0.43828002
224	0xbe230f5f	-0.15923832
225	0x3ccf2c28	0.02528961
226	0xbe85ee44	-0.26158345
227	0xbdf8144a	-0.12113245
228	0x3da6addf	0.08138632
229	0xbe7b6503	-0.24550252
230	0x3c9d32ac	0.019189201
231	0xbdc4b45c	-0.09604713
232	0xbe0156da	-0.12630787
233	0xbcca3fb0	-0.024688572
234	0xbe1c8f2c	-0.1528899
235	0xbe820046	-0.25390834
236	0x3f33c239	0.70218235
237	0xbe0fffef	-0.14062475
238	0x3e54fcec	0.20799607
239	0xbe459b54	-0.19297534
240	0x3ea6054b	0.32425913
241	0x3e909fbf	0.28246877
242	0x3f00639e	0.50152004
243	0x3f50c752	0.8155414
244	0xbe957786	-0.29192752
245	0xbeb6122d	-0.35560742
246	0xbefdee87	-0.49596044
247	0x3e43c46e	0.191179
248	0xbf17e613	-0.5933544
249	0x3e9a9c56	0.301974
250	0x3ec96972	0.3933826
251	0x3eb90764	0.3613845
252	0x3e69fd34	0.22850496
253	0x3d9d09fa	0.076679185
254	0x3c10485a	0.008806312
255	0x3d7ec625	0.062200684

first_layer.0.pw_conv.0.bias f4 [16]
0	0xbec36771	-0.38164857
1	0x3c626372	0.013817655
2	0xbe324563	-0.17409281
3	0x3e5ab338	0.21357429
4	0x3df1c51b	0.11805173
5	0x3e1fa697	0.15590893
6	0x3e10ef8a	0.14153877
7	0xbd92f195	-0.07174984
8	0x3e2a1bab	0.16612117
9	0xbdb1265b	-0.08649894
10	0x3d8b0b08	0.067892134
11	0xbe1113a8	-0.14167655
12	0xbe3406c3	-0.17580704
13	0x3d6ca1b4	0.0577714
14	0x3cc705f2	0.024294827
15	0x3d5f1ff6	0.05447384

first_layer.0.proj.weight f4 [16, 258, 1]
0	0x3cc31106	0.023811828
1	0x3ba49085	0.005022111
2	0xbdb9ad3f	-0.09066247
3	0x3dd06d05	0.10177044
4	0x3da1a57c	0.07892892
5	0x3dbb0ed6	0.09133689
6	0xbda64db0	-0.081202865
7	0xbdc78d14	-0.097437054
8	0xbc960404	-0.018312462
9	0xbc3aa265	-0.011391257
10	0xbc448890	-0.01199545
11	0x3d14f8b9	0.036370013
12	0xbc5c67ce	-0.013452483
13	0xbdb667e5	-0.08906535
14	0xbca69c11	-0.02033809
15	0xbdbc568e	-0.091961965
16	0xbd3f1ff8	-0.046661347
17	0x3d98bde8	0.07458097
18	0xbd1e731f	-0.038684007
19	0xbdb203df	-0.086921446
20	0xbcbb117b	-0.022835484
21	0xbdf7cb7c	-0.120993584
22	0xbd87ad9a	-0.06624909
23	0x3a99134e	0.0011678727
24	0xbdd2c610	-0.10291684
25	0xbe15869f	-0.14602135
26	0xbd58ada2	-0.052899964
27	0xbc466c55	-0.012110789
28	0xbe035c33	-0.1282814
29	0xbd869e48	-0.065731585
30	0xbd7041d2	-0.05865652
31	0xbd9f62d8	-0.07782525
32	0xbd4c29e0	-0.049844623
33	0xbd4c20e8	-0.04983607
34	0x3db3444b	0.0875326
35	0xbc855500	-0.016275883
36	0x3d156f62	0.036483176
37	0xbca127f5	-0.019672373
38	0xbc20eb4a	-0.009821722
39	0xbb7827a7	-0.0037865432
40	0x3c3ccb79	0.011523121
41	0xbc4bc1e9	-0.0124363685
42	0xbd08a25b	-0.03335796
43	0xbcfe7380	-0.031060934
44	0x3b125f08	0.0022334475
45	0x3becf55d	0.007231398
46	0xbe159366	-0.1460701
47	0xba8ba623	-0.0010654371
48	0xbd557938	-0.052117556
49	0x3a799694	0.0009521034
50	0xbcb982fe	-0.02264547
51	0x3c0a6a2e	0.008448167
52	0xbd76c89f	-0.06024992
53	0x3db7f4ae	0.08982216
54	0x3e0041f6	0.12525162
55	0x3d47b885	0.048759956
56	0x3c03a337	0.008034519
57	0x3d5f24ef	0.054478582
58	0x3d3534f2	0.044239946
59	0x3cddf2b4	0.027093269
60	0xbd4e9c29	-0.050441895
61	0xbd7f6f93	-0.062362265
62	0xbd4d4c76	-0.050121747
63	0xbda9d311	-0.08292211
64	0x3c2aba86	0.010420447
65	0x3ce519e2	0.027966443
66	0x3cdb19ba	0.026745666
67	0x3c92726c	0.017876826
68	0xbc6bb0b7	-0.014385394
69	0x3c9a500a	0.018836994
70	0xbda2236e	-0.07916914
71	0xbca1dc5c	-0.019758396
72	0x3dcb6a84	0.099324256
73	0x3d84f9bb	0.06492945
74	0xbd4acace	-0.049509816
75	0xbe2be3d1	-0.16786124
76	0xbe444d21	-0.19170047
77	0xbd7821f8	-0.06057927
78	0xbde5e415	-0.11225144
79	0xbdd38058	-0.10327214
80	0xbdb76e0d	-0.089565374
81	0xbc1c9b46	-0.009558504
82	0x3c32ffca	0.010925243
83	0xbbadc661	-0.0053031896
84	0xbddb5812	-0.107101575
85	0xbdeb9e64	-0.1150482
86	0xbc8db13b	-0.017296424
87	0x3d85af3a	0.065275624
88	0x3e126388	0.1429578
89	0x3d1a22bc	0.03763078
90	0x3d0d61c9	0.034517083
91	0xbd2293d3	-0.039691757
92	0x3c8a8c90	0.016912729
93	0xbca57f60	-0.020202339
94	0x3bfb82fe	0.0076755276
95	0xbbaafd98	-0.005218219
96	0x3daba0fe	0.08380316
97	0x3d4b184a	0.04958371
98	0x3bf2f84e	0.007414854
99	0x3c43bece	0.011947347
100	0x3dc02929	0.09382851
101	0xbda2565c	-0.07926628
102	0xbe1da501	-0.15394975
103	0x3d3e9a17	0.04653367
104	0x3cb852f6	0.022500496
105	0x3d55303b	0.05204795
106	0xbd87a81c	-0.06623861
107	0x3c13c523	0.009019169
108	0xbd4c88bf	-0.0499351
109	0x3d620186	0.055177234
110	0x3e3712c2	0.1787825
111	0x3db987fe	0.090591416
112	0x3ba42bbc	0.0050100964
113	0xbd5c2f8e	-0.05375629
114	0xbe2f3d5e	-0.17113253
115	0xbe58ee08	-0.21184552
116	0xbe4abff4	-0.19799787
117	0xbe1083d9	-0.14112796
118	0x3d99c3ab	0.07508024
119	0x3e3ac993	0.18240957
120	0x3e503e2f	0.20336221
121	0x3e16e666	0.14736328
122	0xbc7da2e3	-0.01548073
123	0x3e42dfa8	0.1903063
124	0x3e71e435	0.2362221
125	0x3e9f9301	0.31166843
126	0x3e07e3d0	0.13270497
127	0x3e25c239	0.16187371
128	0x3e44f65a	0.192346
129	0xbcc5c47d	-0.024141544
130	0xbdda9400	-0.1067276
131	0xbd490331	-0.04907531
132	0xbad07641	-0.0015904383
133	0xbbffbfc7	-0.007804844
134	0x3d85416e	0.0650662
135	0xbca985b8	-0.020693645
136	0xbd0416be	-0.03224825
137	0xbde5e20e	-0.11224757
138	0xbbc58c28	-0.006028671
139	0xbc66fcbc	-0.0140983425
140	0x3cfbe0de	0.030746873
141	0x3c4c68db	0.012476171
142	0xbc1c1479	-0.009526365
143	0xbd7b98c4	-0.061424986
144	0xbdbe5fa2	-0.09295584
145	0xbd6d58d8	-0.057946056
146	0xbdc45e1a	-0.09588261
147	0xbdb8f6dd	-0.090314604
148	0xbcc845e0	-0.024447381
149	0xbd9a766d	-0.07542119
150	0xbdfd9aa5	-0.12383012
151	0xbe16d028	-0.14727843
152	0xbdb3b5b5	-0.08774892
153	0xbdf50990	-0.119647145
154	0xbcfd2757	-0.030902548
155	0xbd73e7a4	-0.05954708
156	0xbbb66aea	-0.0055669444
157	0xbd80f564	-0.062968045
158	0x3ca6e2e3	0.02037186
159	0x3acc0b06	0.001556725
160	0x3d4800a2	0.04882873
161	0xbd3d7b11	-0.046259943
162	0x3cadf2f5	0.021234015
163	0xbc4c4784	-0.0124682225
164	0xbcf4f9f7	-0.029904349
165	0xbcedc9e5	-0.029026935
166	0xbd4a5f0a	-0.049407043
167	0xbdb83e47	-0.089962535
168	0xbc7d9789	-0.015478023
169	0x3c712fb8	0.01472085
170	0xbc8fc203	-0.017548567
171	0x3cc4541e	0.023965891
172	0xbdab51d0	-0.08365214
173	0xbdb8def6	-0.090269014
174	0xbd11daed	-0.035609175
175	0x3c3fd216	0.011707803
176	0xbd6727c7	-0.05643442
177	0xbd83578f	-0.06413185
178	0xbd97291f	-0.0738089
179	0xbcce5af8	-0.025189862
180	0xbd3fad30	-0.046796024
181	0xbd94e49d	-0.07270167
182	0xbcd4e66b	-0.025988778
183	0xbbddde78	-0.006770905
184	0xbd6005de	-0.054693095
185	0xbd78b868	-0.06072274
186	0xbd8edd09	-0.06975753
187	0xbc925312	-0.017861877
188	0xbc5dac0f	-0.0135297915
189	0x3d0b609e	0.03402769
190	0x3ca8bdd3	0.020598328
191	0xbce5726f	-0.028008668
192	0xbdfc8432	-0.12329902
193	0xbdb6ec93	-0.08931842
194	0xbd161e7e	-0.036650173
195	0xbd2786cb	-0.040900033
196	0x3d2fc68b	0.042913955
197	0x3d6bcbe7	0.057567503
198	0xbc2c71c8	-0.010525174
199	0x3d4bae62	0.04972685
200	0xbd61b45d	-0.05510365
201	0xbb16d562	-0.002301537
202	0xbc061c03	-0.008185389
203	0x3cece535	0.028917888
204	0xbd7d4cf9	-0.061840985
205	0xbd4a758f	-0.04942852
206	0x3bed4c7f	0.007241785
207	0xbca9a3c0	-0.020707965
208	0xbc41c068	-0.011825658
209	0x3b397947	0.0028301047
210	0xbc31dc13	-0.010855692
211	0xbd768009	-0.060180698
212	0xbb781fca	-0.0037860745
213	0xbd97caac	-0.074117035
214	0xbcb11bc4	-0.021619685
215	0xbcfb5f63	-0.030685132
216	0xbb9940f2	-0.0046769315
217	0xbc8cf82a	-0.017208178
218	0xbce11435	-0.027475456
219	0xbc8168d0	-0.015797049
220	0xbd91a1e4	-0.07110956
221	0xbd34e372	-0.04416222
222	0xbd91bf30	-0.07116544
223	0xbd5b9da3	-0.05361713
224	0xbd847bfd	-0.064689614
225	0xbcebf304	-0.028802402
226	0xbd487d6b	-0.048947733
227	0xbd556cfd	-0.052105892
228	0xbd44b48b	-0.04802374
229	0xbc7fb941	-0.015608133
230	0xbbcea177	-0.006305869
231	0xbd7ccdff	-0.06171989
232	0xbd455285	-0.0481744
233	0xbd7f778f	-0.06236988
234	0xbde47461	-0.1115501
235	0xbe0654ef	-0.13118337
236	0xbde4c304	-0.11170009
237	0xbe24a914	-0.16080123
238	0xbe2ee2d0	-0.1707871
239	0xbe0c20fb	-0.13684456
240	0xbe169e3e	-0.14708802
241	0xbd29dba5	-0.041469235
242	0x3dc10335	0.0942444
243	0x3eceb0f8	0.4036939
244	0x3f580256	0.84378564
245	0x3f923135	1.1421267
246	0x3f03be7c	0.5146253
247	0xbecbe1c6	-0.3982069
248	0xbf085092	-0.5324794
249	0xbec566cb	-0.38554987
250	0xbe72cdb9	-0.2371129
251	0xbe09ed4d	-0.1346943
252	0xbdce56af	-0.10075127
253	0xbdb7fd8a	-0.089839056
254	0x3c82a75e	0.015948948
255	0xbd54b496	-0.051930033

first_layer.0.proj.bias f4 [16]
0	0xbead3d3a	-0.33835775
1	0xbb075ffb	-0.0020656574
2	0xbe502dfa	-0.20330039
3	0x3e0421fb	0.12903588
4	0x3e3e0de9	0.18559994
5	0x3e01b60b	0.126671
6	0x3de24ead	0.110501625
7	0x3b9608ab	0.00457867
8	0x3e24b1f6	0.16083512
9	0xbd25f2a5	-0.040514607
10	0xbc1a2584	-0.0094083585
11	0xbd31c4e7	-0.04340067
12	0xbe546bd2	-0.20744255
13	0x3db06134	0.0861229
14	0x3d140bf3	0.03614421
15	0x3e07f9bf	0.13278864

encoder.3.0.dw_conv.0.weight f4 [16, 1, 5]
0	0x3b3cd0df	0.002881102
1	0x3e3aae82	0.18230632
2	0x3e20f90f	0.15720008
3	0x3f2ff16b	0.6872775
4	0x3f09a457	0.5376639
5	0xbf023f09	-0.50877434
6	0xbc3825c9	-0.011239477
7	0x3c98ce75	0.018653134
8	0x3f4101e1	0.7539349
9	0x3ee1c6ff	0.44097134
10	0x3e07c872	0.13260058
11	0x3e25b80d	0.16183491
12	0xbf285abd	-0.65763456
13	0x3ef134cc	0.47110593
14	0x3ec84b11	0.3911977
15	0x3f0e31e0	0.55544853
16	0x3f2e4bc9	0.6808439
17	0xbe8a4c7c	-0.27011478
18	0xbf0ab64c	-0.5418441
19	0xbe843507	-0.25821707
20	0xbd200ceb	-0.03907482
21	0x3e85d00e	0.26135296
22	0xbdd0f782	-0.10203458
23	0x3f5a9936	0.8539003
24	0x3f06669f	0.5250034
25	0xbdd12dc6	-0.10213809
26	0x3e78b6b1	0.24288441
27	0x3e135eca	0.14391628
28	0x3f213feb	0.62988156
29	0x3eaffc9f	0.34372422
30	0x3e221099	0.15826644
31	0x3e880df4	0.26573145
32	0xbeec971b	-0.46209034
33	0x3eafc5b8	0.34330535
34	0x3ed90590	0.42387056
35	0xbebab41a	-0.36465532
36	0xbf06a783	-0.5259935
37	0x3ecca4a0	0.3996935
38	0x3f086af1	0.5328818
39	0xbe38b97a	-0.18039504
40	0x3d1a3fbd	0.03765844
41	0x3e89d311	0.26918843
42	0xbb621db4	-0.0034502568
43	0x3f361bcc	0.71136165
44	0x3f00e1c1	0.50344473
45	0x3dbda946	0.09260802
46	0x3e90f7d3	0.28314075
47	0x3e80b10f	0.25135085
48	0x3eb1bd56	0.34714764
49	0x3f00b85b	0.50281304
50	0x3e9b8ca4	0.30380738
51	0x3e5e6ea0	0.21721888
52	0x3e4502fa	0.19239417
53	0x3ef96a23	0.48713788
54	0xbfb3e408	-1.4053965
55	0xbe3fa1c9	-0.1871406
56	0xbecf4215	-0.40480104
57	0x3de5103f	0.11184739
58	0x3f2af338	0.6677737
59	0xbe2ab357	-0.16669975
60	0xbe762020	-0.24035692
61	0xbea4a1aa	-0.3215459
62	0x3e5ca04f	0.21545528
63	0x3f2dcc65	0.67890006
64	0x3f207212	0.6267406
65	0xbdd234a3	-0.10263946
66	0x3db72876	0.08943264
67	0x3e868b78	0.2627828
68	0xbeff3a77	-0.49849293
69	0xbe668e3a	-0.22515193
70	0xbd4d11b3	-0.050065707
71	0x3e7b54c0	0.24544048
72	0xbd91f0ea	-0.07126029
73	0x3eee259b	0.46513066
74	0x3f03d20f	0.514924
75	0xbcadbfdc	-0.02120965
76	0x3ef9ebbf	0.48812672
77	0x3e18d4a8	0.14924872
78	0x3f033b45	0.51262313
79	0xbfcabca8	-1.5838823

encoder.3.0.dw_conv.0.bias f4 [16]
0	0x3b82fc19	0.0039973375
1	0x3d1f6fea	0.03892509
2	0x3b4f7a6b	0.003165866
3	0x3e987be7	0.2978203
4	0x3e785914	0.2425273
5	0x3c37f309	0.011227378
6	0x3c285761	0.010274739
7	0xbaa76b19	-0.0012773006
8	0x3db2cf66	0.08730964
9	0xbf1d05e4	-0.61337113
10	0xbea9c5c4	-0.33158696
11	0xbb961995	-0.0045806863
12	0xbd5d8487	-0.054081466
13	0x3ec61ab4	0.38692248
14	0x3a917ae0	0.0011099242
15	0x3abf5a25	0.0014599009

encoder.3.0.pw_conv.0.weight f4 [32, 16, 1]
0	0xbcbee419	-0.023302125
1	0x3caa4d97	0.02078895
2	0x3e8196bb	0.2531031
3	0xbf4cb555	-0.7996419
4	0xbe0d38ec	-0.13791245
5	0xbc0f1ef0	-0.008735403
6	0x3f244f6f	0.64183706
7	0x3f0223b7	0.50835747
8	0x3da25712	0.079267636
9	0xbf1e85bf	-0.6192283
10	0x3ed29b27	0.41133997
11	0xbe570241	-0.20996954
12	0x3f23e88c	0.64026713
13	0xbf16bdd6	-0.58883417
14	0x3ea0c8fd	0.31403342
15	0x3ee4d320	0.44692326
16	0x3ef71670	0.48259306
17	0x3b9e87ce	0.0048379665
18	0x3eab261e	0.3342752
19	0x3e8f52bb	0.27992806
20	0xbeea0d8a	-0.45713454
21	0xbeebca6a	-0.46052867
22	0xbeee39e3	-0.4652854
23	0xbea98757	-0.3311107
24	0xbf3fb94b	-0.7489211
25	0x3f4ab7c8	0.7918668
26	0x3ea22b2b	0.3167356
27	0xbdf027ca	-0.11726339
28	0x3dcfa2f6	0.10138504
29	0x3ed0a2cc	0.40749204
30	0xbb6d32ff	-0.0036193726
31	0x3e91d114	0.28479826
32	0xbf01c977	-0.50698036
33	0xbf44cb04	-0.7687228
34	0x3eb9d668	0.3629639
35	0xbe1dc99f	-0.15408944
36	0x3e45449a	0.1926445
37	0x3eda22ef	0.42604777
38	0xbe2c4882	-0.16824535
39	0xbe4faa89	-0.20279898
40	0x3e14a92b	0.14517657
41	0xbf18d87c	-0.5970533
42	0x3f0f5a8a	0.55997527
43	0xbec4c3fa	-0.38430768
44	0xbbad0d72	-0.005281144
45	0x3e30129f	0.17194603
46	0x3e3f83e6	0.18702659
47	0x3e9b9ca5	0.30392948
48	0x3edae654	0.4275385
49	0x3ed72fb6	0.42028588
50	0xbf3ae3cd	-0.73003846
51	0x3dad39c1	0.08458281
52	0x3e99e532	0.30057675
53	0xbceab772	-0.028651927
54	0x3e60dd30	0.21959376
55	0x3d65abac	0.056071922
56	0x3dfa4d37	0.12221759
57	0xbe354d3e	-0.17705247
58	0xbdedb0f7	-0.11606019
59	0x3ecce43d	0.40017882
60	0xbe0fd664	-0.14046627
61	0xbc7c1299	-0.015385293
62	0xbe8973e1	-0.2684622
63	0xbf696198	-0.9116454
64	0xbed5e844	-0.41778767
65	0x3e4b422d	0.19849463
66	0xbe58a2f9	-0.21155919
67	0xbe9875b8	-0.29777312
68	0x3efc6bf9	0.49301127
69	0x3e9ea4e0	0.30985165
70	0x3e42fb74	0.19041234
71	0x3e936128	0.28785062
72	0x3ee37b7b	0.44430146
73	0x3ea382db	0.31935772
74	0x3ca496dd	0.020091468
75	0x3e0ddca1	0.13853694
76	0xbdda2cf7	-0.106531076
77	0xbcc7fd80	-0.02441287
78	0xbde60658	-0.11231679
79	0xbe5617b7	-0.20907484
80	0xbe833f7a	-0.25634366
81	0xbe91da73	-0.28486976
82	0x3e09e491	0.13466097
83	0xbd807e91	-0.062741406
84	0x3ec73ea6	0.38914984
85	0x3eaec779	0.3413656
86	0x3d49455a	0.049138404
87	0xbde42c2c	-0.111412376
88	0x3ea43cc1	0.32077602
89	0xbe27125c	-0.16315597
90	0xbeedbf51	-0.46435025
91	0xbf186120	-0.595232
92	0xbdbe6afa	-0.09297748
93	0x3ddc6266	0.107609555
94	0xbe4555af	-0.19270967
95	0xbe9d9e5a	-0.30784875
96	0xbe11ac53	-0.14225893
97	0xbf348054	-0.70508313
98	0x3e907c57	0.28219864
99	0x3ebec15e	0.37256902
100	0xbe9a04eb	-0.30081877
101	0x3d0d7d03	0.03454305
102	0xbf834db7	-1.0258092
103	0xbeb9396d	-0.36176625
104	0xbec70938	-0.3887422
105	0x3d25ccf3	0.040478658
106	0x3e9b7745	0.30364433
107	0x3ae90269	0.0017777208
108	0xbeb072fe	-0.34462732
109	0x3ed582f2	0.41701466
110	0xbebbd9fa	-0.3668974
111	0x3e433c58	0.19065988
112	0xbd03e3d6	-0.032199703
113	0xbeb9bd2b	-0.36277136
114	0xbe0472aa	-0.12934366
115	0x3d00cd4a	0.03144578
116	0xbe39d3e4	-0.18147236
117	0xbd020335	-0.03174134
118	0xbe09b19e	-0.13446662
119	0x3d0cd512	0.034382887
120	0xbdae53c2	-0.08512069
121	0x3e8d8b84	0.27645504
122	0xbc891163	-0.016731923
123	0xbe0f8702	-0.14016345
124	0x3dfd5a32	0.12370719
125	0xbd9b4159	-0.075808235
126	0x3bb47f1c	0.0055083167
127	0xbdc8fda1	-0.09814001
128	0xbe89b7aa	-0.26897937
129	0xbcfa2f3a	-0.030540098
130	0xbca415b2	-0.020029876
131	0x3f1e5f49	0.61864144
132	0x3e81c761	0.25347427
133	0x3da98aa0	0.08278394
134	0xbdd09285	-0.101841964
135	0xbedb1518	-0.4278953
136	0x3e8071a1	0.25086692
137	0xbe9eeedc	-0.3104161
138	0xbea8624b	-0.32887492
139	0x3ccc5f46	0.024947774
140	0xbf680b68	-0.90642405
141	0x3e11c42b	0.14234988
142	0xbea6d4a0	-0.32584095
143	0xbf209185	-0.62722045
144	0xbdb8dc95	-0.09026448
145	0x3ebb76dd	0.36614123
146	0xbd9e4b93	-0.077292584
147	0xbd28efa8	-0.04124418
148	0x3eba7618	0.36418223
149	0x3dae0362	0.08496739
150	0xbea48a5a	-0.32136804
151	0xbe9639af	-0.29340884
152	0x3e5692c2	0.20954421
153	0xbef44b1b	-0.4771355
154	0x3ebdd05b	0.37073025
155	0x3d922339	0.071356244
156	0xbeed563e	-0.4635486
157	0x3ddbee29	0.10738785
158	0x3e6decf4	0.23234922
159	0xbe2abfaf	-0.16674684
160	0x3d1730e5	0.036911864
161	0x3eb938e1	0.36176208
162	0xbedac624	-0.42729294
163	0x3dda988b	0.106736265
164	0x3e8f6c61	0.28012374
165	0xbe431dd5	-0.19054349
166	0xbce81329	-0.028329449
167	0xbd952392	-0.07282175
168	0x3e329928	0.17441237
169	0x3f94dd4f	1.1630038
170	0xbe155a73	-0.14585285
171	0x3e00b294	0.12568122
172	0xbef002f1	-0.46877244
173	0xbeb9efc4	-0.3631574
174	0xbde9fd61	-0.11425281
175	0xbe10b657	-0.14132057
176	0x3ac3adc7	0.0014929109
177	0xbf859d26	-1.0438583
178	0x3d9142dc	0.070928305
179	0x3e394031	0.18090893
180	0xbdfa1be8	-0.12212354
181	0xbd855f5b	-0.06512328
182	0xbd98cb06	-0.07460599
183	0xbc88ff9b	-0.016723445
184	0xbe369b8f	-0.17832778
185	0x3ede9484	0.43472683
186	0x3eb2b7b8	0.3490579
187	0xbef8fadc	-0.4862889
188	0x3d797c5a	0.060909607
189	0x3f12fe70	0.5741949
190	0x3e40bbed	0.18821688
191	0x3ea70e5c	0.32628143
192	0x3e81a662	0.25322253
193	0xbec52ba8	-0.3850987
194	0x3e34beea	0.17650953
195	0x3d8b36bc	0.06797549
196	0xbe22da4f	-0.1590359
197	0xbc80787c	-0.015682451
198	0x3e1e0525	0.1543165
199	0x3ee29d66	0.4426071
200	0xbe5aacc3	-0.21354966
201	0xbee1ae18	-0.44078135
202	0xbcfac881	-0.030613186
203	0xbede3d1d	-0.43406
204	0x3e684459	0.22682323
205	0xbd052c74	-0.032513097
206	0xbef75ea0	-0.4831438
207	0xbc011b7d	-0.007880089
208	0xbe93cadd	-0.2886571
209	0xbdbc7d5b	-0.09203597
210	0xbde079ec	-0.10960755
211	0xbe48b37a	-0.19599715
212	0x3dbb82aa	0.091557816
213	0x3ee52a38	0.44758773
214	0x3dc4bd9b	0.09606477
215	0x3d77dbc5	0.060512323
216	0x3e6f5aeb	0.23374526
217	0xbeb737e9	-0.35784844
218	0xbe2f64a9	-0.17128243
219	0xbe033f72	-0.12817171
220	0x3e64be9e	0.2233834
221	0x3e0615ee	0.13094303
222	0xbe7586d7	-0.23977219
223	0xbd3d0c56	-0.046154343
224	0x3d83188b	0.064011656
225	0x3e86ba3f	0.2631397
226	0x3d0ac75e	0.033881538
227	0x3d29fc5f	0.041500445
228	0xbe28669b	-0.16445391
229	0x3c4a8169	0.012359955
230	0xbf2c4143	-0.6728708
231	0x3e7d37e6	0.24728355
232	0xbea8b95a	-0.32953912
233	0x3f92ca56	1.1467998
234	0x3d116d47	0.035504606
235	0xbeb27f63	-0.34862813
236	0x3ee21ce5	0.4416267
237	0xbe8bf419	-0.2733467
238	0x3e8508ea	0.25983363
239	0x3e259b03	0.16172414
240	0x3d5509fc	0.052011475
241	0x3eab4d0a	0.33457214
242	0xbf0edf9e	-0.5580996
243	0xbf315c29	-0.6928125
244	0x3e6b40a2	0.22973874
245	0xbcc85d7b	-0.024458637
246	0x3e1800b7	0.14844023
247	0x3e1bdfb9	0.15222062
248	0x3d3e55a8	0.046468407
249	0xbc57646a	-0.013146499
250	0x3df6df6e	0.120543346
251	0x3ebcf8bb	0.36908516
252	0xbe25a248	-0.16175187
253	0xbe8f85ae	-0.28031677
254	0xbe6bda89	-0.23032583
255	0xbe2ea8bc	-0.17056555

encoder.3.0.pw_conv.0.bias f4 [32]
0	0xbeca08b7	-0.39459774
1	0xbde2e405	-0.110786475
2	0x3d865441	0.06559039
3	0xbe930b46	-0.28719538
4	0x3e41e355	0.18934377
5	0x3d5c0b89	0.05372194
6	0x3dca24e0	0.098703146
7	0xbea1286d	-0.31476155
8	0xbdd8a696	-0.10578649
9	0xbe5521da	-0.20813695
10	0xbdbe1711	-0.09281743
11	0xbe2f3097	-0.1710838
12	0x3e3a341d	0.18183942
13	0xbd23cfdb	-0.03999315
14	0xbdd7ad16	-0.105310604
15	0x3cbd803f	0.023132442
16	0x3dda185b	0.10649177
17	0x3d85596c	0.065111965
18	0xbe51ad7d	-0.20476337
19	0xbc307aa0	-0.010771424
20	0x3e11f1e5	0.14252432
21	0xbdd0ca2a	-0.1019481
22	0xbe485276	-0.19562706
23	0xbd8dd7da	-0.06925936
24	0xbe1f0ab3	-0.15531425
25	0xbe333954	-0.17502338
26	0xbdc4a576	-0.09601872
27	0xbe33ee41	-0.17571355
28	0xbe42f9ab	-0.19040553
29	0x3e4f1235	0.20221789
30	0x3e3e7d7e	0.18602559
31	0x3d9dfb29	0.077139206
